TrainData.pth (torch, 7575 bytes, 6 tensors)

l1.weight f4 [8, 96]
0	0xbe216714	-0.15761977
1	0x3cda7e67	0.026671601
2	0x3f0af181	0.54274756
3	0xbf54ede3	-0.83175486
4	0xbd8c974e	-0.068647966
5	0xbc261f10	-0.010139242
6	0xbd164a72	-0.03669209
7	0xbf01544d	-0.5051926
8	0x3d57a7cc	0.052650258
9	0xbf151e27	-0.58249134
10	0xbedee73c	-0.43535793
11	0xbf04b07c	-0.51831794
12	0xbf0513ec	-0.51983523
13	0xbf14e437	-0.5816073
14	0x3fa9b08e	1.3257005
15	0x3e733446	0.2375041
16	0xbfc0bc95	-1.5057551
17	0x3f8ed774	1.1159501
18	0xbe07e124	-0.13269478
19	0xbf2f6c4b	-0.68524617
20	0xbf14ce56	-0.58127344
21	0xbdd61e96	-0.104550526
22	0xbe524cfa	-0.20537177
23	0xbdecec36	-0.11568491
24	0xbeed0213	-0.46290645
25	0xbf88a2ef	-1.0674723
26	0xbf14c125	-0.58107215
27	0xbf5c9b16	-0.8617414
28	0x3f5db554	0.8660481
29	0x3f1e81f9	0.6191707
30	0x3e657eb9	0.22411622
31	0xbf14c5bd	-0.58114225
32	0xbf14e4c7	-0.58161587
33	0xbf14c616	-0.58114755
34	0xbed05602	-0.4069062
35	0x3f6a4bb1	0.91521746
36	0xbd8a6d3b	-0.06759115
37	0x3ee14b8a	0.44002944
38	0x3f66e3e3	0.9019148
39	0x3d4981f2	0.04919619
40	0x3f2a1ee2	0.66453373
41	0x3ef03a9b	0.46919712
42	0x3ed7eb72	0.42171818
43	0xbdf0fd1e	-0.11767028
44	0xbebd4922	-0.36969858
45	0xbd7c4788	-0.061591655
46	0x3f926236	1.1436222
47	0xbf0b5f14	-0.5444195
48	0x3eabdf4b	0.33568797
49	0x3f0d1e57	0.5512442
50	0xbf6d96f0	-0.9280844
51	0x3fa0d098	1.2563658
52	0x3e81a0fd	0.25318137
53	0x3dd76caf	0.105187766
54	0x3f4497b4	0.7679398
55	0xbdfbeb9a	-0.12300797
56	0x3ec504af	0.38480136
57	0xbf5beee3	-0.8591139
58	0xbefc1d19	-0.4924095
59	0x3e90c44f	0.28274772
60	0x3dca709d	0.098847605
61	0xbe753672	-0.2394655
62	0x3dac75fe	0.08420943
63	0xbde78f8f	-0.113066785
64	0x3e63900e	0.22222921
65	0x3f7b3344	0.981251
66	0xbf14eb7b	-0.58171815
67	0x3f13a943	0.5768015
68	0x3e8c6219	0.27418593
69	0xbe4ad26a	-0.19806829
70	0xbe32c602	-0.17458346
71	0xbf016cec	-0.50556827
72	0xbd8c21d5	-0.068423904
73	0xbdb1e127	-0.086855225
74	0xbe39cfe5	-0.18145712
75	0x3f5d5bd8	0.8646827
76	0xbf261c03	-0.6488649
77	0x3fbbadbe	1.4662397
78	0x3e8f0072	0.27930027
79	0x3e8cc17b	0.27491364
80	0xbe61f612	-0.22066525
81	0xbf6d688e	-0.9273766
82	0x3e1bde34	0.15221483
83	0xbdefeb71	-0.11714829
84	0xbdd6b6b6	-0.10484068
85	0x3e881eb3	0.26585922
86	0xbe23b1f1	-0.15985848
87	0x3f00bde1	0.5028973
88	0xbcaac315	-0.020844975
89	0x3f1b6d46	0.60713613
90	0x3f903ea1	1.1269113
91	0x3f8adc91	1.0848562
92	0x3d91b3d8	0.071143806
93	0xbf2e4731	-0.6807738
94	0x3e2d3b3c	0.16917127
95	0x3fa88ddf	1.3168296
96	0xbebcc2d1	-0.36867383
97	0x3f36ce64	0.7140868
98	0xbf073bd0	-0.5282564
99	0x3ff76a08	1.9329233
100	0x3f0434da	0.51643145
101	0xbd1f58b2	-0.038902946
102	0xbe91e0a0	-0.28491688
103	0x3ce9118c	0.02845075
104	0xbe8368a8	-0.25665784
105	0x3f7cd4bd	0.9876211
106	0x3edc0615	0.4297339
107	0xbf87c40a	-1.0606701
108	0x3f4b8611	0.79501444
109	0xbf61c003	-0.8818361
110	0x3f937509	1.1520091
111	0xbe1d4f4f	-0.15362285
112	0xbf333461	-0.700018
113	0xbf8af797	-1.0856808
114	0xbebd6a7d	-0.36995307
115	0x3fea9e2d	1.8329521
116	0xbf5c12a7	-0.8596596
117	0xbe815f81	-0.25268176
118	0xbe955259	-0.2916439
119	0xbe756a06	-0.23966226
120	0x3eba7cb3	0.36423263
121	0xbce79860	-0.0282709
122	0xbf686168	-0.9077363
123	0x3f0c4612	0.5479442
124	0xbf1205fb	-0.57040375
125	0xbf12fa70	-0.5741339
126	0xbdf63934	-0.120226294
127	0x3f7b2528	0.9810357
128	0x3f5af340	0.8552742
129	0x3f75e4c6	0.96052206
130	0xbe495db2	-0.19664648
131	0xbf1f42d8	-0.6221137
132	0x3e4aae69	0.19793095
133	0xbec2c327	-0.38039514
134	0xbf550b82	-0.83220685
135	0xbef3eff5	-0.4764401
136	0xbf381b23	-0.7191641
137	0xbec651cb	-0.38734278
138	0x3f2965c7	0.66170925
139	0xbe2a2157	-0.1661428
140	0x3f87680d	1.0578629
141	0xbe5f96d4	-0.2183488
142	0xbf62a64e	-0.8853501
143	0x3f13f3ea	0.5779406
144	0xbdf2d867	-0.11857682
145	0x3f4057c0	0.75133896
146	0xbc83441f	-0.016023694
147	0xbe89b70b	-0.26897463
148	0x3e28e682	0.16494182
149	0x3fa33faa	1.2753804
150	0x3f21dce3	0.6322767
151	0x3ec9e38f	0.39431426
152	0x3e39e24f	0.18152736
153	0xbf88ef89	-1.06981
154	0xbf1df961	-0.61708647
155	0xbe9bae55	-0.30406442
156	0xbf2d1388	-0.6760793
157	0x3f918a0e	1.1370256
158	0xbe8290d5	-0.25501123
159	0x3f768838	0.96301603
160	0xbe71a8c0	-0.2359953
161	0x3f83bd42	1.0292132
162	0xbf689ffc	-0.90869117
163	0xbeaeda8c	-0.34151113
164	0x3f12c867	0.5733704
165	0x3eda61cb	0.42652735
166	0xbee4e581	-0.44706348
167	0x3f14b5f0	0.58090115
168	0x3f260513	0.6485149
169	0xbe844a54	-0.25837958
170	0x3f2b05a7	0.668055
171	0x3e2c5b6d	0.16831751
172	0xbd6cfdd8	-0.05785927
173	0xbd8de599	-0.06928558
174	0x3e25dd96	0.1619781
175	0x3e0c96db	0.13729422
176	0x3f43c469	0.76471573
177	0x3edd0787	0.43169805
178	0x3e1d8fd7	0.15386902
179	0x3fa10414	1.257937
180	0x3f39c444	0.725651
181	0xbe64f356	-0.2235845
182	0x3ddf0160	0.10888934
183	0xbf3b48f0	-0.7315817
184	0x3f91a4ad	1.137838
185	0xbd4b9999	-0.04970703
186	0xbf60589e	-0.8763522
187	0xbf104fb2	-0.56371605
188	0x3dbba964	0.09163168
189	0xbe455c24	-0.1927343
190	0xbe53b445	-0.20674236
191	0xbf878240	-1.0586624
192	0x3e1f5912	0.15561321
193	0x3e8fe9f4	0.2810818
194	0x3f8391e4	1.0278897
195	0x3f52f843	0.8241007
196	0x3ed8ea22	0.4236613
197	0x3fab4197	1.3379391
198	0x3ed42d62	0.41440874
199	0x3fced446	1.6158531
200	0x3e9d29d8	0.30695987
201	0xbf2a9ef9	-0.66648823
202	0xbeba0c24	-0.36337388
203	0xbf83c107	-1.0293282
204	0xbf2aa1ad	-0.6665295
205	0xbf2ac458	-0.66705847
206	0x3fadddef	1.3583354
207	0xbecb6b05	-0.39730087
208	0xbf22f822	-0.6365987
209	0x3ebcf9d4	0.36909354
210	0x3efe46b8	0.4966333
211	0x3e2d1e60	0.16906118
212	0xbf2adeb9	-0.667461
213	0x3eaf8750	0.34282923
214	0x3ef24407	0.47317526
215	0x3edb52da	0.42836648
216	0xbebbb808	-0.36663842
217	0x3e20387b	0.15646546
218	0xbf2ad689	-0.66733605
219	0x400c0a64	2.1881342
220	0x3cc0ab5c	0.02351921
221	0xbdcc06da	-0.09962244
222	0xbe3c5c10	-0.18394494
223	0xbf2aa35e	-0.6665553
224	0xbf2a961f	-0.66635317
225	0xbf2aa5f8	-0.666595
226	0xbfc842a2	-1.5645335
227	0xbef05218	-0.46937633
228	0x3f2c60b2	0.67335045
229	0x3f96c4e9	1.1778842
230	0x3ecf7a09	0.40522793
231	0x3f868974	1.0510697
232	0xbeca6400	-0.3952942
233	0xbe0c41af	-0.13696931
234	0x3f41acc8	0.7565427
235	0x3ebd5d12	0.3698507
236	0x3e441ddc	0.19152015
237	0xbf1e0651	-0.6172839
238	0x3f4c1b89	0.79729515
239	0xbf03b24a	-0.5144392
240	0x3f419c8d	0.756295
241	0x3f987ca8	1.1913042
242	0x3e21982e	0.15780708
243	0xbf6f48c2	-0.93470395
244	0x3f2d71fa	0.6775204
245	0x3f75dd40	0.96040726
246	0x3f908d88	1.1293192
247	0xbd4e8ec5	-0.050429124
248	0x3ed7109c	0.4200486
249	0xbee48345	-0.446314
250	0xbf519cfb	-0.8188016
251	0x3fa81cf3	1.3133835
252	0xbf86a1dc	-1.0518146
253	0x3e42c85c	0.19021744
254	0xbebfd4a9	-0.37466934
255	0x3f520e19	0.8205276

l1.bias f4 [8]
0	0x3f1456ac	0.5794475
1	0x3f679271	0.90457827
2	0x3f2a1efd	0.66453534
3	0x3f6a6dc8	0.9157376
4	0x3f43df81	0.76512915
5	0x3f5522cc	0.8325622
6	0x3ed096bf	0.4074001
7	0x3f6b60bf	0.919445

l2.weight f4 [8, 8]
0	0xbf7f11da	-0.99636614
1	0x3fa121c0	1.2588425
2	0x3f3c718a	0.73610747
3	0x3fc93e19	1.5722076
4	0xbf807dec	-1.0038428
5	0xbd5b9a56	-0.053613983
6	0x3fb6e65a	1.4289048
7	0x3f4b4bbc	0.79412436
8	0xbeebaedc	-0.46031845
9	0xbe1edaa9	-0.155131
10	0xbfb18a52	-1.3870337
11	0x3fdea880	1.7395172
12	0x3e4395b3	0.19100074
13	0x3e1f1280	0.15534401
14	0xbf55adde	-0.83468425
15	0x3fe20e35	1.7660586
16	0xbee6b64d	-0.4506096
17	0x3f2e6a32	0.6813079
18	0xbfb1f91e	-1.390415
19	0x3dd473ea	0.10373671
20	0x3ef4f557	0.4784343
21	0x3fd37117	1.6518887
22	0x3f3eb5b0	0.74495983
23	0x3e813391	0.25234655
24	0xbf72144b	-0.94562215
25	0xc0016251	-2.0216258
26	0x3f846beb	1.0345434
27	0x3f9f5dd0	1.2450504
28	0x3d0be306	0.034152053
29	0x3f93321d	1.1499668
30	0x40001c7b	2.0017383
31	0x3f0570da	0.5212532
32	0xbf1d36a8	-0.61411524
33	0x3ff97234	1.9487977
34	0x3fc0f67a	1.5075219
35	0x3ef9feed	0.48827305
36	0x3f171afa	0.5902554
37	0x3f862c77	1.048232
38	0xbf752a02	-0.95767224
39	0xbf96ffb2	-1.1796782
40	0x3ff55b45	1.9168478
41	0xbefd9a50	-0.49531794
42	0x3fcb61c0	1.5889206
43	0xbd5990e5	-0.053116698
44	0x40002892	2.0024762
45	0xbeebbbde	-0.4604177
46	0xbfb30ad6	-1.3987682
47	0x3f892ada	1.0716202
48	0x3eddf6c5	0.43352333
49	0x3eb1cd37	0.3472688
50	0xbbe17046	-0.006879839
51	0xbfc9e1b2	-1.5772002
52	0x3fba96ee	1.457731
53	0x3f9a0515	1.2032801
54	0x3c00b9a2	0.007856758
55	0x3fafe28a	1.3741009
56	0xbe92c3ae	-0.28664917
57	0xbea1d2ab	-0.3160604
58	0xbbbbeb00	-0.0057348013
59	0xbe83049f	-0.25589463
60	0x3db7d210	0.08975613
61	0xbd8fb9b4	-0.07017842
62	0xbeb08512	-0.34476525
63	0xbe8d3a45	-0.2758352

l2.bias f4 [8]
0	0x3f71f43d	0.94513303
1	0x3f44e874	0.76917195
2	0x3f1ba505	0.60798675
3	0xbcb6d72a	-0.022319395
4	0x3f811529	1.0084583
5	0x3f46eb26	0.7770256
6	0xbe284b74	-0.16435033
7	0xbe353f54	-0.17699939

l3.weight f4 [21, 8]
0	0x3eedd712	0.46453148
1	0xbf5d4c23	-0.864443
2	0x3eaec257	0.34132645
3	0xbf4957de	-0.786497
4	0x3f4ee793	0.80822104
5	0xc0290610	-2.640995
6	0xc02596c6	-2.5873275
7	0x3e537f4a	0.20654026
8	0xbf205b27	-0.6263909
9	0xbeea30dd	-0.45740405
10	0xbf14c382	-0.5811082
11	0xbf81e5ec	-1.0148292
12	0x3f3de4bb	0.7417714
13	0x3e373d13	0.17894392
14	0x3e809c9d	0.25119486
15	0x3dc3d19c	0.09561464
16	0xbde51612	-0.1118585
17	0xbfb7a637	-1.43476
18	0x3f4a5353	0.7903339
19	0x3ea880b8	0.32910705
20	0xbf803f93	-1.0019401
21	0xc0177a74	-2.366849
22	0x3edce536	0.43143624
23	0xbd909bf4	-0.07060996
24	0xbe86ff6b	-0.26366743
25	0xbed09b44	-0.40743458
26	0xbf58ae43	-0.846409
27	0x3ed1d6ca	0.40984184
28	0xc037c533	-2.871411
29	0x3eb6f6a3	0.35735044
30	0x3e36e55b	0.1786093
31	0xbdc56530	-0.096384406
32	0xbe80e374	-0.25173533
33	0xbe9d50d3	-0.30725726
34	0x3edebb49	0.43502262
35	0xbf9c46ca	-1.2209103
36	0x3f3b8a23	0.73257655
37	0xbf5dec4e	-0.866887
38	0x3e2194dc	0.15779442
39	0xbd447e80	-0.047972202
40	0x3eb56234	0.35426486
41	0x3da07d9d	0.07836459
42	0xc038405f	-2.878929
43	0x3f15e0d5	0.5854619
44	0xbfcb4725	-1.5881087
45	0x3e0ba254	0.13636142
46	0xbff8edac	-1.9447532
47	0xbdd09300	-0.10184288
48	0x3df1c99e	0.118060336
49	0xbef6435a	-0.4809826
50	0xbf746b90	-0.9547663
51	0xbea0ba28	-0.31392026
52	0x3ebcbe5a	0.36863977
53	0x3e2bb1fb	0.16767113
54	0xbf26fa35	-0.65225536
55	0x3d8f0314	0.06983009
56	0x3f49ce33	0.7883026
57	0x3f7cbb21	0.98723036
58	0x3ed7ae01	0.42124942
59	0xbfad3eb9	-1.3534766
60	0xbecb44c8	-0.39700913
61	0xc04e20ea	-3.220759
62	0xbdc01427	-0.09378844
63	0xbe6d571c	-0.23177761
64	0xbe4c5b7a	-0.1995677
65	0xbdcadd1b	-0.09905454
66	0x3ed8028c	0.42189443
67	0x3f0b3a00	0.54385376
68	0x3e915b29	0.28389862
69	0xbf8381c6	-1.0273979
70	0xc05306c9	-3.2972891
71	0x3e0de0e2	0.13855317
72	0x3ef0c663	0.47026357
73	0xbf4171da	-0.7556435
74	0xbf47cefb	-0.780502
75	0x3f06b05b	0.5261285
76	0x3d90e3c5	0.070746936
77	0xbf98939f	-1.192005
78	0xc0371a7f	-2.8609922
79	0xbe99ca40	-0.30037117
80	0xbfce83ab	-1.6133932
81	0xbf80eb98	-1.0071898
82	0x3f41dfaa	0.7573191
83	0xbd1cebc6	-0.03831079
84	0xbfc862ed	-1.565519
85	0xbeb13c3e	-0.34616274
86	0x3f411357	0.75420135
87	0x3df79f64	0.12090948
88	0xbf61efe0	-0.88256645
89	0x3eaf390b	0.34223208
90	0x3ebfc9d0	0.37458658
91	0xbf90cd23	-1.1312603
92	0x3e9a5f78	0.30150962
93	0xbea8d024	-0.329713
94	0x3f0d0d91	0.55098826
95	0x3d095ad8	0.0335339
96	0xc00ca2ec	-2.197444
97	0x3edcd232	0.43129116
98	0x3d54ac68	0.051922232
99	0xbfbf4226	-1.4942062
100	0xbfea64d1	-1.8312017
101	0x3f1db33d	0.6160162
102	0x3f076f5f	0.52904314
103	0x3e9f8297	0.3115432
104	0x3e8f5d0e	0.28000683
105	0x3f904f45	1.1274191
106	0x3f4fae46	0.81125295
107	0x3e4e102c	0.20123357
108	0xbfed7939	-1.8552619
109	0xc01c012e	-2.437572
110	0xc0482ef6	-3.1278663
111	0xbd8a96a0	-0.06767011
112	0xbf8ebbe4	-1.115109
113	0x3f5ab72e	0.8543576
114	0x3e145478	0.14485347
115	0x3ea15b49	0.31514958
116	0xbfaa14eb	-1.3287634
117	0xbf7de38e	-0.99175346
118	0x3e86d495	0.26334062
119	0x3ca89f40	0.020583749
120	0x3f15da75	0.58536464
121	0x3e6d1366	0.23151931
122	0xbfda7214	-1.7066064
123	0x3f537fcc	0.8261688
124	0xc027c013	-2.6210983
125	0xbfbbf992	-1.4685538
126	0x3a5dd95b	0.00084628694
127	0xbe9e6edc	-0.30943954
128	0xc01f1757	-2.4857996
129	0xbfab4420	-1.3380165
130	0xc02b4eb3	-2.6766784
131	0xc020967e	-2.5091853
132	0x3d79e5c8	0.061010152
133	0x3fa03e04	1.2518926
134	0x3e8edf86	0.2790491
135	0x3e742efa	0.23846045
136	0x3ea0fcd8	0.31442904
137	0x3f90e61f	1.1320227
138	0xbf4b0134	-0.7929871
139	0xbf01b783	-0.5067064
140	0xbf1a7fed	-0.6035145
141	0xbd53973b	-0.051657896
142	0xbf699024	-0.91235566
143	0x3e11bbea	0.1423184
144	0x3f0d6d69	0.5524507
145	0xbf0d27fa	-0.55139124
146	0xc067bc1e	-3.6208568
147	0xc020636e	-2.5060687
148	0x3f73f111	0.95289713
149	0x3ed04578	0.40678
150	0xbff12d1b	-1.884189
151	0xbe507107	-0.20355617
152	0xbf189fbb	-0.5961873
153	0x3f0641b1	0.5244399
154	0xc0855009	-4.16602
155	0xbeb60883	-0.3555337
156	0xbef61ba6	-0.4806797
157	0x3f8891d2	1.0669501
158	0xbf25aca1	-0.64716536
159	0x3e9e7a37	0.30952618
160	0xbfc1a484	-1.5128331
161	0xc0062736	-2.0961432
162	0xbfbc6ae6	-1.4720123
163	0xbb739b66	-0.0037171482
164	0xbf24b20c	-0.6433418
165	0x3f12154f	0.57063764
166	0x3f6db32e	0.9285153
167	0xbe6526f8	-0.22378147

l3.bias f4 [21]
0	0xbe12a154	-0.14319354
1	0xbe14d1bb	-0.14533131
2	0x3da2157c	0.07914254
3	0x3e550b02	0.2080498
4	0x3ea9a781	0.33135608
5	0x3d4f0cfb	0.05054949
6	0x3e8998fd	0.26874533
7	0xbe4179dc	-0.18894142
8	0xbd6df744	-0.05809714
9	0x3d2c1fbc	0.04202245
10	0xbdbe5a35	-0.092945494
11	0xbeb71382	-0.3575707
12	0x3d76f51b	0.060292345
13	0x3ea771f0	0.32704115
14	0xbf543848	-0.8289838
15	0xbe080f32	-0.13287047
16	0x3e1a710b	0.15082185
17	0x3eba7ce8	0.3642342
18	0x3e536f78	0.2064799
19	0x3e8fbd0a	0.28073913
20	0xbce21d68	-0.027601913
